Reverse Neural Network Calculation/megnet_robot_traj/results/model.pt (torch, 17356 bytes, 14 tensors)

fc_mt.weight f4 [20, 1]
1.3434052 1.3085296 -2.582073 1.8599143 1.0542457 -2.493053 1.8067225 0.99676824
-1.6191677 2.5932035 -1.4938103 2.1528273 -2.4111574 -2.2818148 -0.82312244 -1.4176239
-2.5954175 -2.131531 1.1726496 0.62693113
00000000: b4f4 ab3f e67d a73f af40 25c0 ac11 ee3f
00000010: 86f1 863f 2e8e 1fc0 af42 e73f 342c 7f3f
00000020: e340 cfbf 0cf7 2540 2d35 bfbf ecc7 0940
00000030: 6750 1ac0 4109 12c0 27b8 52bf b374 b5bf
00000040: 521b 26c0 016b 08c0 6219 963f 8f7e 203f

fc_mt.bias f4 [20]
-0.61969626 -0.31872 0.5877317 -0.16230342 -0.5424759 0.80465674 -0.5786682 0.7566191
-0.2352467 -0.87566876 0.27328092 -0.52223897 0.7716211 0.21815713 -0.00359006 0.6279962
0.38663426 0.21436235 0.60726607 0.88261116
00000000: 6aa4 1ebf 452f a3be 9675 163f de32 26be
00000010: b3df 0abf fcfd 4d3f 9923 14bf cab1 413f
00000020: 83e4 70be d42b 60bf 7aeb 8b3e 74b1 05bf
00000030: f688 453f 9564 5f3e 3647 6bbb 5cc4 203f
00000040: edf4 c53e ce81 5b3e ca75 1b3f cef2 613f

fc_E.weight f4 [20, 3]
1.2696478 1.5961055 1.2045497 1.5674971 1.2005442 1.4973043 0.43721405 0.6898842
0.27493393 0.9422992 1.329985 1.1455307 1.2299939 1.5145811 1.2651287 1.3650373
0.921632 1.1610442 1.3218943 1.3156109 0.7419621 1.2142998 0.40873307 0.6989436
0.16231227 0.9937026 0.51433074 1.0812303 1.5517806 0.8296101 0.7129648 0.8247426
0.032242596 0.18380262 0.7631753 0.15996677 -1.6017002 -0.9868481 -0.8500676 -1.3987654
-1.4610708 -1.3805215 -1.1417116 -0.89740086 -1.0622718 -1.8050072 -1.8188673 -1.5058594
0.81625634 1.2355684 0.5590807 -0.41464958 -0.5652209 -1.2158988 1.2963132 0.89541936
1.3412858 -0.73769426 -0.9350863 -1.2597735
00000000: d283 a23f 2f4d cc3f af2e 9a3f bfa3 c83f
00000010: 6fab 993f aba7 bf3f 85da df3e 409c 303f
00000020: 24c4 8c3e 853a 713f f33c aa3f c0a0 923f
00000030: 7170 9d3f cbdd c13f bdef a13f 8bb9 ae3f
00000040: 13f0 6b3f 199d 943f d533 a93f f065 a83f
00000050: 3af1 3d3f 2d6e 9b3f 7645 d13e f8ed 323f
00000060: 3035 263e 4b63 7e3f 2eab 033f c165 8a3f
00000070: bfa0 c63f 5461 543f dc84 363f 5522 533f
00000080: d010 043d c136 3c3e 755f 433f 54ce 233e
00000090: 8304 cdbf 14a2 7cbf 089e 59bf bf0a b3bf
000000a0: 5e04 bbbf eeb4 b0bf 9b23 92bf 10bc 65bf
000000b0: 86f8 87bf 7a0a e7bf a5d0 e8bf 00c0 c0bf
000000c0: 2df6 503f 1b27 9e3f ea1f 0f3f f34c d4be
000000d0: 51b2 10bf 92a2 9bbf 97ed a53f 343a 653f
000000e0: 41af ab3f 88d9 3cbf d161 6fbf 4240 a1bf

fc_E.bias f4 [20]
-0.14917298 -0.4753667 -0.15028074 0.29219297 -0.25450394 -0.43965593 -0.5763767 -0.53151417
0.06446427 -0.40003198 0.073042914 0.16518746 0.38230175 0.12523834 -0.124546506 0.3613199
-0.19760613 -0.20711239 -0.036420688 0.048660938
00000000: cdc0 18be 4463 f3be 32e3 19be 519a 953e
00000010: 574e 82be 951a e1be 6c8d 13bf 5011 08bf
00000020: d805 843d fed0 ccbe 8697 953d e726 293e
00000030: 0ebd c33e 7b3e 003e 3d12 ffbd ecfe b83e
00000040: 4359 4abe 4515 54be dc2d 15bd b150 473d

fc_L.weight f4 [20, 3]
-0.7501245 0.112273514 0.063389905 0.83631706 0.18587863 -1.2785175 0.55909747 -0.074983045
-1.046662 0.50131434 -0.048042882 -0.76590043 -0.5542015 -1.2972275 0.2587881 -1.0203596
-0.7221958 0.4120784 0.25895828 -1.3462927 -0.33605653 0.5347949 0.44018555 -0.6911628
-0.538682 -0.5045975 0.3668845 -1.0715957 -0.018583434 0.77834386 0.48874354 -1.2443571
-0.007790371 -0.14923146 -0.123853005 -0.7744879 0.4489574 0.17498924 -0.6361426 0.8269992
-0.084072374 -0.7513511 0.54595965 0.46443668 -0.5288311 -0.22165208 -1.0962026 -0.25023288
0.8881657 -0.8220903 -1.4835143 -0.45216918 -1.035347 0.77911496 -1.0655049 0.13780016
0.86247855 -0.79840416 -0.93734735 0.4311137
00000000: 2908 40bf a8ef e53d 91d2 813d e018 563f
00000010: f856 3e3e 76a6 a3bf 0321 0f3f b690 99bd
00000020: 05f9 85bf 2356 003f 9dc8 44bd 0d12 44bf
00000030: 26e0 0dbf 8d0b a6bf e07f 843e 259b 82bf
00000040: d3e1 38bf f1fb d23e 2e96 843e 5253 acbf
00000050: 9a0f acbe 52e8 083f 0060 e13e 0cf0 30bf
00000060: 10e7 09bf 4d2d 01bf 49d8 bb3e 0c2a 89bf
00000070: 493c 98bc 8b41 473f 983c fa3e 1847 9fbf
00000080: 5e46 ffbb 22d0 18be a5a6 fdbd d744 46bf
00000090: bfdd e53e 6130 333e 3eda 22bf 38b6 533f
000000a0: 232e acbd 8c58 40bf 03c4 0b3f a5ca ed3e
000000b0: 7a61 07bf c3f8 62be 5e50 8cbf 861e 80be
000000c0: d45e 633f 8374 52bf cce3 bdbf b882 e7be
000000d0: 4086 84bf 1474 473f 7762 88bf 7c1b 0d3e
000000e0: 65cb 5c3f 3764 4cbf fff5 6fbf efba dc3e

fc_L.bias f4 [20]
0.12961596 0.41123495 -0.047959384 -0.10939259 0.06567992 0.0016335075 0.1971889 0.49116954
-0.4609981 -0.48496795 -0.3484357 -0.42856896 0.57188725 -0.36345223 0.14333336 -0.16038416
-0.17345051 -0.7808068 -0.46381664 -0.1353221
00000000: 0cba 043e 638d d23e 0f71 44bd 3909 e0bd
00000010: 3283 863d 6b1b d63a e3eb 493e 937a fb3e
00000020: f107 ecbe b84d f8be 2a66 b2be 646d dbbe
00000030: 3467 123f 6916 babe fbc5 123e bf3b 24be
00000040: 039d 31be f4e2 47bf 6079 edbe e091 0abe

fc_cs.weight f4 [20, 1]
1.5647353 1.5633252 1.8368701 1.8832737 -2.0553842 2.0445158 1.8739679 -1.974913
-2.0797324 -1.757984 -2.3698533 2.2992153 1.6788708 -1.7257333 -2.0744653 -2.0409834
1.9609696 1.4588133 1.7539961 -1.5289435
00000000: 3f49 c83f 0a1b c83f 8f1e eb3f 1d0f f13f
00000010: 6a8b 03c0 59d9 0240 2ede ef3f f3c9 fcbf
00000020: 561a 05c0 9f05 e1bf adab 17c0 5826 1340
00000030: 3de5 d63f d4e4 dcbf 0ac4 04c0 799f 02c0
00000040: 0d01 fb3f 65ba ba3f f282 e03f 6cb4 c3bf

fc_cs.bias f4 [20]
0.1986092 -0.041894197 0.14720614 -0.002627634 -0.122094385 -0.5113864 -0.08611854 0.297557
0.6741492 -0.47775462 0.5692708 -0.92184156 -0.11317486 -0.48864904 -0.18616411 -0.18030596
0.43695855 0.56571114 -0.478817 0.02708397
00000000: 3660 4b3e 4099 2bbd 35bd 163e 6234 2cbb
00000010: 9f0c fabd 38ea 02bf eb5e b0bd 6459 983e
00000020: 0b95 2c3f 419c f4be bbbb 113f cffd 6bbf
00000030: 39c8 e7bd 3530 fabe cea1 3ebe 20a2 38be
00000040: 08b9 df3e 72d2 103f 8027 f5be 34df dd3c

attention.linear_q.weight f4 [20, 20]
-0.18739845 -0.18320379 -0.11321291 0.021754414 -0.20128062 -0.046543837 0.030828804 0.0025177896
-0.0070759207 0.040240943 0.22117898 -0.19098035 -0.1613171 0.11686635 0.06849164 0.18999454
0.17796785 -0.16607396 -0.05079019 -0.20134464 0.090121 0.13345942 -0.17737387 -0.12172569
0.119434655 0.05447644 -0.13977933 -0.0011094213 -0.14862907 0.08670592 0.041416734 0.060728103
-0.01055263 0.012157917 -0.16585648 0.20873305 -0.009148791 0.006239772 0.020209804 -0.21032958
0.057775855 0.19249386 0.1300919 0.031127065 0.06491527 0.03972876 0.0005751252 0.097916484
0.07365754 0.072622746 -0.13483527 -0.027242541 0.13941541 0.14722037 -0.12589008 0.072983295
-0.14920087 0.05827543 0.07760766 -0.13465488 0.16597751 0.1596587 0.16059124 0.06132099
0.09203121 -0.0041205585 -0.11844557 0.06809884 -0.09651026 0.057677448 -0.114756964 -0.09469405
-0.1761525 -0.06029439 0.13489187 0.06951955 -0.018093675 0.14192656 0.15959337 -0.095769465
-0.1654962 0.17219931 -0.20281625 -0.17258772 -0.1834257 -0.14417604 -0.15131068 0.006777689
-0.09795579 0.17208746 -0.19932549 -0.16877493 -0.20617865 -0.19704586 0.054252595 -0.15479419
-0.04885398 -0.11407862 -0.060247585 -0.093613684 0.14235005 -0.09901472 -0.111547954 0.12712193
0.20325953 0.18200636 -0.033322573 0.039926708 -0.11601035 -0.021888107 0.025237992 -0.13067213
-0.032660306 0.10689294 0.05586028 0.20809603 -0.07675445 -0.093711704 -0.21112384 0.10670483
-0.10817421 -0.2084048 0.026353493 -0.08576891 -0.13517131 0.13197017 -0.1346653 0.111653894
0.19026497 0.13990292 -0.09030709 0.16905686 -0.15267807 0.18084723 -0.03712353 -0.100558214
0.014903873 0.202304 -0.06370956 0.16328964 0.052351266 -0.16117592 -0.1651696 0.19044966
0.20479298 0.13374835 0.2161212 -0.14776042 -0.11814076 -0.08402419 -0.124138035 -0.05454877
0.08083066 0.03204021 0.13449901 -0.06817423 0.19091696 0.042392284 0.14119968 0.17276764
-0.011980116 0.21073109 0.11821729 -0.13685617 0.016137496 -0.10877512 0.042316794 -0.13503107
-0.083081394 -0.09204951 -0.21667351 0.20531991 -0.076550275 -0.06850807 -0.0046444386 0.0039352477
-0.18780634 0.062207043 -0.13940004 -0.17758963 -0.13422841 -0.17436785 0.17517397 0.08549762
0.19594216 -0.17994416 -0.17751357 0.08870518 -0.10467849 -0.06853078 -0.13137445 -0.18814462
-0.13172783 -0.14061315 0.11456323 -0.0059019327 0.13973519 0.19440126 0.14766979 -0.18199639
0.13106632 0.12735042 -0.101272546 -0.04709664 0.07516056 -0.022837907 -0.13676198 -0.039625272
-0.06170149 0.13679838 0.09740773 0.13978443 -0.009461731 -0.20356223 0.21831623 0.006915286
0.09536204 -0.12681428 -0.0110743195 0.05968693 -0.09094465 -0.123828426 0.06284636 0.17953649
0.17446527 0.07612491 0.019039348 0.1005047 -0.0698493 0.17244354 0.11798245 -0.22295737
0.20388833 0.0105237365 -0.16906887 -0.08556461 0.21718687 -0.18668692 0.05594489 -0.07520619
-0.18366417 0.08639604 0.1302732 0.21981913 -0.18241559 0.10935953 0.15913287 -0.0054988116
0.17251182 0.2041313 -0.18108718 0.11235398 0.053287625 0.0253001 0.16484058 0.012005866
00000000: 61e5 3fbe c699 3bbe 2cdc e7bd 5036 b23c
00000010: 821c 4ebe c0a4 3ebd b08c fc3c 8001 253b
00000020: 20dd e7bb b0d3 243d be7c 623e 5a90 43be
00000030: 4f30 25be a057 ef3d 5845 8c3d ee8d 423e
00000040: 343d 363e 4b0f 2abe 6009 50bd 4a2d 4ebe
00000050: 5c91 b83d 96a9 083e 7fa1 35be 524b f9bd
00000060: 289a f43d b022 5f3d 5022 0fbe 006a 91ba
00000070: 3832 18be e092 b13d 98a4 293d 08be 783d
00000080: f0e4 2cbc 0032 473c 48d6 29be 1ebe 553e
00000090: d0e4 15bc 0077 cc3b 088f a53c a360 57be
000000a0: 60a6 6c3d 1c1d 453e d036 053e 30fe fe3c
000000b0: 4cf2 843d a0ba 223d 00c4 163a 7088 c83d
000000c0: c4d9 963d 3cbb 943d 4212 0abe c02b dfbc
000000d0: eac2 0e3e f0c0 163e 54e9 00be 4478 953d
000000e0: 1dc8 18be 38b2 6e3d c4f0 9e3d f8e2 09be
000000f0: 02f6 293e 927d 233e 0872 243e b82b 7b3d
00000100: dc7a bc3d c005 87bb 9793 f2bd 6877 8b3d
00000110: 2ca7 c5bd 303f 6c3d b305 ebbd f4ee c1bd
00000120: 5261 34be 40f7 76bd 1821 0a3e 4460 8e3d
00000130: 3039 94bc 3255 113e 726c 233e c822 c4bd
00000140: d677 29be 0455 303e 10af 4fbe d6ba 30be
00000150: f2d3 3bbe e2a2 13be 30f1 1abe 6017 de3b
00000160: 0c9d c8bd b237 303e fb1b 4cbe 56d3 2cbe
00000170: 7f20 53be 64c6 49be f837 5e3d 5e82 1ebe
00000180: 1c1b 48bd 0da2 e9bd 2cc6 76bd 88b8 bfbd
00000190: 36c4 113e 3bc8 cabd 4173 e4bd 402c 023e
000001a0: 4423 503e e05f 3a3e 407d 08bd 308a 233d
000001b0: d696 edbd b04e b3bc e8bf ce3c eace 05be
000001c0: d0c6 05bd b0ea da3d c0cd 643d 2017 553e
000001d0: 7031 9dbd eceb bfbd d930 58be 1088 da3d
000001e0: 718a ddbd 1168 55be 48e3 d73c 9ca7 afbd
000001f0: 596a 0abe 3023 073e b3e5 09be ccaa e43d
00000200: d2d4 423e b642 0f3e ecf2 b8bd 3e1d 2d3e
00000210: a457 1cbe 0430 393e d80e 18bd 77f1 cdbd
00000220: 602f 743c c828 4f3e 287a 82bd 6635 273e
00000230: 486e 563d 4d0b 25be 3822 29be 3c05 433e
00000240: 40b5 513e 54f5 083e e04e 5d3e 824e 17be
00000250: c8f3 f1bd e014 acbd 153c febd 886e 5fbd
00000260: 8c8a a53d 983c 033d 1cba 093e ee9e 8bbd
00000270: bc7f 433e 88a3 2d3d a696 103e 00ea 303e
00000280: 4048 44bc e4c9 573e e81b f23d 0624 0cbe
00000290: c832 843c 7dc5 debd 6054 2d3d 9645 0abe
000002a0: 9426 aabd 7484 bcbd a9df 5dbe 623f 523e
000002b0: 64c6 9cbd f64d 8cbd 6030 98bb 40f3 803b
000002c0: 4e50 40be d0cc 7e3d e2be 0ebe 0eda 35be
000002d0: 2c73 09be 7c8d 32be ce60 333e 6019 af3d
000002e0: 10a5 483e 4843 38be 1ec6 35be 10ab b53d
000002f0: ad61 d6bd de59 8cbd 0687 06be fca8 40be
00000300: a9e3 06be e5fc 0fbe 20a0 ea3d 0065 c1bb
00000310: be16 0f3e 2011 473e c036 173e 435d 3abe
00000320: 4036 063e 2668 023e fb67 cfbd 68e8 40bd
00000330: c8ed 993d 9016 bbbc 550b 0cbe 1c4e 22bd
00000340: b4ba 7cbd e014 0c3e b47d c73d a623 0f3e
00000350: 6005 1bbc 9e72 50be 4a8e 5f3e a099 e23b
00000360: 2c4d c33d 9adb 01be 1071 35bc 487a 743d
00000370: 3041 babd c299 fdbd 98b5 803d 6ad8 373e
00000380: 06a7 323e 60e7 9b3d 68f8 9b3c 68d5 cd3d
00000390: 260d 8fbd 0a95 303e c8a0 f13d f04e 64be
000003a0: 1ac8 503e c06b 2c3c 6420 2dbe 803c afbd
000003b0: 3c66 5e3e db2a 3fbe 7826 653d b405 9abd
000003c0: 7612 3cbe 68f0 b03d 5666 053e 4418 613e
000003d0: 27cb 3abe e4f7 df3d baf3 223e 602f b4bb
000003e0: f0a6 303e cc07 513e eb6e 39be d819 e63d
000003f0: 2044 5a3d 2842 cf3c f8cb 283e 40b4 443c

attention.linear_k.weight f4 [20, 20]
0.13150018 0.081602454 -0.15787712 -0.14540167 -0.04588984 -0.02136381 -0.06286897 0.15033963
0.015522167 -0.059740216 -0.012830064 0.10239065 -0.15681484 -0.2197232 -0.17963147 0.09831241
0.024278 -0.19999968 0.18276015 0.11976868 -0.20863816 0.1373932 -0.00867939 0.018787786
0.18359455 0.17292944 0.04884714 -0.10685761 0.16816342 0.18588907 -0.033009276 -0.17819221
0.20948917 -0.09666249 -0.13358584 -0.21111976 0.09030631 0.08588636 -0.096248925 -0.21669155
0.1565401 0.013610795 0.19851059 -0.020905912 0.20178658 -0.056749925 -0.103790894 0.13070685
0.0557999 0.2007787 0.0168055 -0.17114529 -0.15843517 -0.050211117 -0.033512414 -0.12265698
0.18967465 -0.12205218 0.021215811 0.12778765 0.045988023 0.011433035 0.087164074 -0.11597661
-0.2214431 0.065932214 -0.1654048 -0.19190912 -0.16364475 0.18099329 -0.1500529 0.17414346
0.14860678 0.03871098 -0.13127321 -0.20272827 -0.17304038 0.14433905 -0.14756016 -0.029096574
0.03626743 -0.0271025 0.050056964 -0.17666021 0.18360937 -0.1613069 -0.13068762 -0.18627487
0.14554542 -0.110717535 -0.07621096 0.11737782 -0.023202613 0.1845082 0.06835833 -0.018983796
-0.15010557 -0.21324448 0.06189379 0.017137438 0.20364025 -0.20556241 0.044918686 0.083254844
0.12334168 0.10857877 -0.015860423 -0.21291582 -0.044402704 0.22088075 -0.16774547 -0.1492818
0.20346966 -0.014537677 -0.07482703 0.025483415 0.093863845 0.01981245 0.17998078 -0.003165856
-0.09406838 -0.10448504 -0.017229676 -0.043679357 0.15119499 0.10426155 0.17225084 0.17520887
0.1909515 -0.21242452 -0.05066262 -0.021379828 0.16012809 -0.001859501 0.08476311 -0.020782173
-0.2193884 0.017852724 -0.0047859997 -0.13800451 0.21779853 -0.17937016 -0.18948983 -0.16056961
-0.20305121 -0.045066267 -0.11947838 0.18336645 0.119712085 0.10624692 0.19210485 -0.18465082
-0.13434786 0.18850309 0.16285041 0.035354525 0.12503514 0.05725351 -0.016925767 -0.074854895
0.07842329 -0.1815744 0.22036597 -0.19725141 -0.1692979 0.16379964 -0.12958813 -0.109262146
-0.053037748 -0.19520321 -0.01062797 -0.03197132 -0.04481344 -0.0010540634 -0.15019518 -0.03876877
-0.026633993 -0.22116362 -0.16595608 0.17215565 -0.21419315 -0.044358373 -0.13154474 0.22208422
0.16456741 0.110088706 -0.11428643 -0.19727232 -0.035027996 0.13675517 0.026176572 -0.12228558
-0.20060696 0.18887109 0.044841945 0.15271264 -0.19523501 0.02949816 0.2088257 -0.21734536
-0.21131513 -0.20561333 -0.10993092 -0.022701323 0.109547734 -0.07758959 0.17698917 0.18290377
0.15041691 -0.18080387 0.08752629 0.12701917 0.16380021 -0.20209433 -0.046755224 -0.11345237
-0.0841375 0.065128416 -0.012482241 0.09710494 -0.16616768 -0.06956898 0.09578422 -0.08250727
0.027545989 -0.14937049 0.1930061 -0.0004634112 0.082190126 0.012048215 0.02184607 0.21214625
-0.09407507 0.19554147 -0.092664465 -0.006986961 -0.14158556 0.05717051 -0.21964921 0.062306345
-0.11243645 0.19686627 0.21788943 0.14155513 -0.20984179 0.100604 -0.16787374 0.013864115
-0.13590045 0.14121881 -0.025929287 0.07208088 0.07055271 0.14640477 0.14109746 -0.00794816
00000000: fca7 063e 301f a73d 8aaa 21be 2de4 14be
00000010: fcf6 3bbd 2803 afbc 72c1 80bd a2f2 193e
00000020: b050 7e3c 28b2 74bd 3035 52bc 30b2 d13d
00000030: 1294 20be 1eff 60be 50f1 37be 0458 c93d
00000040: a8e2 c63c b7cc 4cbe 7a25 3b3e 4849 f53d
00000050: 3ea5 55be ceb0 0c3e 0034 0ebc d8e8 993c
00000060: 3600 3c3e 6a14 313e f013 483d 2ad8 dabd
00000070: 0833 2c3e b459 3e3e bc34 07bd 0578 36be
00000080: 5484 563e fcf6 c5bd baca 08be c72f 58be
00000090: 84f2 b83d 30e5 af3d 281e c5bd 64e4 5dbe
000000a0: 0c4c 203e d0ff 5e3c 5c46 4b3e e042 abbc
000000b0: 24a1 4e3e 9c72 68bd 5290 d4bd 04d8 053e
000000c0: 708e 643d ee98 4d3e b0ab 893c b640 2fbe
000000d0: d43c 22be 2caa 4dbd 5044 09bd 9533 fbbd
000000e0: 123a 423e 7ef6 f9bd c8cc ad3c c4da 023e
000000f0: f05d 3c3d a051 3b3c 1483 b23d 2585 edbd
00000100: fbc1 62be 7807 873d e05f 29be d383 44be
00000110: 7d92 27be 4e56 393e 78a7 19be aa52 323e
00000120: 602c 183e 688f 1e3d 7c6c 06be 0098 4fbe
00000130: 7f31 31be 9ecd 133e 031a 17be f05b eebc
00000140: 288d 143d 1006 debc 8808 4d3d 6ae6 34be
00000150: 1804 3c3e a32d 25be fad2 05be d7be 3ebe
00000160: dc09 153e e0bf e2bd 7e14 9cbd c863 f03d
00000170: 6813 bebc b8ef 3c3e 74ff 8b3d e883 9bbc
00000180: 46b5 19be c35c 5abe 5884 7d3d d063 8c3c
00000190: 1287 503e f47e 52be a8fc 373d 8481 aa3d
000001a0: 909a fc3d 8c5e de3d b8ed 81bc 9b06 5abe
000001b0: 9cdf 35bd 902e 623e 78c5 2bbe 54dd 18be
000001c0: 5a5a 503e 702f 6ebc ea3e 99bd 98c2 d03c
000001d0: b03b c03d b84d a23c e24c 383e 407a 4fbb
000001e0: eca6 c0bd 41fc d5bd 4025 8dbc 20e9 32bd
000001f0: dcd2 1a3e 1487 d53d 8662 303e f469 333e
00000200: ca88 433e d085 59be 9c83 4fbd c024 afbc
00000210: 9ef8 233e 80ba f3ba 4898 ad3d 603f aabc
00000220: 5aa7 60be e03f 923c e0d3 9cbb 0e51 0dbe
00000230: 9406 5f3e d0ac 37be 9f09 42be 5c6c 24be
00000240: a8ec 4fbe 6897 38bd 15b1 f4bd 6ac4 3b3e
00000250: 9c2b f53d fc97 d93d 22b7 443e 1b15 3dbe
00000260: 7c92 09be f406 413e 42c2 263e e8cf 103d
00000270: 3609 003e a882 6a3d e8a7 8abc 864d 99bd
00000280: 649c a03d a4ee 39be 9ea7 613e 46fc 49be
00000290: 6e5c 2dbe 18bb 273e c0b2 04be d5c4 dfbd
000002a0: 1c3e 59bd 5ae3 47be f020 2ebc 5cf4 02bd
000002b0: 4c8e 37bd 8028 8aba c4cc 19be 00cc 1ebd
000002c0: 882f dabc b778 62be 64f0 29be 9249 303e
000002d0: 7355 5bbe 20b1 35bd aab3 06be 0c6a 633e
000002e0: 5c84 283e 3076 e13d 010f eabd c101 4abe
000002f0: 8479 0fbd 8c09 0c3e 4070 d63c dd70 fabd
00000300: e96b 4dbe 6c67 413e 30ac 373d b460 1c3e
00000310: b0eb 47be 20a6 f13c 68d6 553e c88f 5ebe
00000320: fe62 58be 4d8c 52be 7623 e1bd 20f8 b9bc
00000330: 905a e03d 4ae7 9ebd a63c 353e 204b 3b3e
00000340: e406 1a3e a624 39be fc40 b33d 5011 023e
00000350: 3ebb 273e d1f1 4ebe 6882 3fbd b759 e8bd
00000360: 4850 acbd 0c62 853d 5082 4cbc f4de c63d
00000370: dc27 2abe 2e7a 8ebd 842a c43d 92f9 a8bd
00000380: 20a8 e13c 94f4 18be 64a3 453e 00f6 f2b9
00000390: 4c53 a83d e065 453c 88f6 b23c de3c 593e
000003a0: 6eaa c0bd 063c 483e dec6 bdbd e0f2 e4bb
000003b0: cefb 10be a02b 6a3d b9eb 60be f034 7f3d
000003c0: 1545 e6bd 5097 493e 681e 5f3e d4f3 103e
000003d0: c4e0 56be 7809 ce3d 18e7 2bbe 5026 633c
000003e0: 7d29 0bbe aa9b 103e a869 d4bc 249f 933d
000003f0: f07d 903d 22eb 153e da7b 103e 0039 02bc

attention.linear_v.weight f4 [20, 20]
-0.22185105 -0.22124028 -0.026426226 -0.15176499 -0.14519873 0.023299277 -0.042556286 0.17508176
-0.1231866 0.10262513 -0.11178402 -0.11472791 0.19682407 0.027163833 0.22318733 -0.18591203
-0.08086406 -0.18980213 0.17816958 0.108600855 0.01041536 0.21123317 -0.15508097 -0.16358432
0.20660114 -0.05848077 0.1452348 0.10732648 0.060673296 -0.140428 -0.07391122 0.19432396
0.088115156 -0.05974163 0.07225928 -0.0555481 -0.017324701 0.038982213 0.15585208 0.21390325
0.20360139 -0.04726419 0.01801677 -0.21510956 -0.022040918 0.0129715055 -0.14300247 0.20019963
-0.09433536 -0.20729683 -0.10275086 -0.038903594 -0.18608162 0.14229482 0.032111317 -0.1314623
0.019684285 -0.19326021 0.07054287 -0.007444337 -0.01763156 0.018205673 -0.102196574 0.14942187
-0.1626175 -0.0033685714 0.18459484 0.047116637 -0.16099668 0.22206938 -0.13256592 -0.095059395
0.1373133 -0.13444647 0.008943364 0.08249962 0.12386078 -0.13825895 0.21333608 0.16638058
-0.08894275 0.0013394058 -0.078368664 -0.115245245 0.19390038 0.16622913 0.0580312 0.20115653
-0.21720013 0.016495302 -0.11068507 0.12118265 0.017703965 -0.17571552 0.0070035756 0.09162906
-0.068793744 -0.021159083 -0.15904698 0.19271713 -0.2164599 -0.13234317 -0.17641687 -0.09942779
-0.12165138 0.070544064 0.19330159 0.009723172 0.05118972 0.16890228 -0.22326349 0.014876351
0.10070124 0.040826827 -0.093106 -0.074844554 -0.11700561 0.22125927 -0.09879668 -0.038356453
0.004250884 -0.16786835 -0.14642334 -0.15089321 0.045262396 -0.13563305 -0.17617318 -0.12727244
-0.07711625 -0.060729504 -0.13964616 0.06390688 -0.028103888 -0.16160044 0.104189605 0.05157894
0.03569162 0.22023374 -0.03830117 0.14103472 -0.1132159 -0.10934798 0.054316968 -0.11671391
0.09643504 -0.21073541 -0.08197597 0.22298166 -0.011322483 0.12148774 0.20161241 -0.06390154
-0.052122563 -0.03209351 -0.111393295 -0.0067388564 0.106559545 0.19299442 0.15468985 0.22021374
-0.112928145 -0.15414599 -0.2204782 0.13166186 0.09913707 -0.053518593 0.18487322 -0.16094182
-0.036177725 -0.005848989 0.08991945 0.1864815 -0.12713745 0.22304475 0.21298191 0.05948919
-0.1471655 0.073726445 0.046596736 -0.081076965 0.21526766 -0.17961046 -0.07943 -0.08387488
-0.06206289 0.16572922 -0.011127681 0.031113237 -0.19942571 -0.15124479 0.14045778 -0.068344936
0.07999006 -0.17233935 -0.12697133 0.10759491 0.15746629 0.013898358 -0.2024839 -0.14068004
-0.08135621 0.10407606 -0.18184291 -0.14360735 -0.22221893 -0.15773591 0.16186205 -0.08342238
-0.052741423 0.0068900436 -0.044233218 -0.07661986 -0.004528463 -0.11210459 0.14184466 -0.008996889
0.10002217 0.02695492 0.16848043 0.108771265 -0.11241489 -0.052553594 0.05160129 -0.08067185
-0.15499592 0.1874564 0.15017849 -0.11171184 0.05161971 0.16213897 -0.13548891 -0.036842793
-0.18439978 -0.20460327 0.17771712 0.078261316 -0.14532882 -0.016594276 -0.104008086 -0.040756345
-0.048345625 0.07082978 0.03869149 -0.15160911 0.11202502 0.016476586 -0.11678754 -0.1298968
-0.00493446 0.07782745 -0.20650798 -0.05199848 -0.1615759 -0.20908852 0.11983147 -0.07681854
00000000: ec2c 63be d08c 62be d07b d8bc 4868 1bbe
00000010: faae 14be 20de be3c 804f 2ebd a248 333e
00000020: 4249 fcbd 202d d23d 05ef e4bd 77f6 eabd
00000030: 408c 493e b086 de3c 388b 643e b95f 3ebe
00000040: 0e9c a5bd 7d5b 42be 1672 363e 206a de3d
00000050: 30a5 2a3c 824d 583e 8ccd 1ebe a682 27be
00000060: 408f 533e 8889 6fbd 6eb8 143e fccd db3d
00000070: 9084 783d 5ccc 0fbe c45e 97bd dcfc 463e
00000080: b875 b43d a4b3 74bd acfc 933d 6886 63bd
00000090: 88ec 8dbc d0ab 1f3d b097 1f3e 7409 5b3e
000000a0: e27c 503e 1898 41bd e897 933c ae45 5cbe
000000b0: 288f b4bc 7086 543c 3d6f 12be 2201 4d3e
000000c0: e632 c1bd 9f45 54be 0b6f d2bd 6059 1fbd
000000d0: 2e8c 3ebe bcb5 113e 2887 033d 0e9e 06be
000000e0: f040 a13c 01e6 45be c878 903d a0ef f3bb
000000f0: 1070 90bc 1024 953c 704c d1bd 0c02 193e
00000100: 3485 26be 40c3 5cbb 6e06 3d3e 60fd 403d
00000110: 50dc 24be 2866 633e 5cbf 07be 80ae c2bd
00000120: dc9b 0c3e 56ac 09be 3087 123c 90f5 a83d
00000130: b8aa fd3d c193 0dbe c674 5a3e ac5f 2a3e
00000140: 9e27 b6bd 008f af3a c07f a0bd b305 ecbd
00000150: d28d 463e f837 2a3e 20b2 6d3d fafb 4d3e
00000160: b669 5ebe 2821 873c dbae e2bd 9c2e f83d
00000170: e807 913c c5ee 33be 407e e53b 04a8 bb3d
00000180: bce3 8cbd d055 adbc 36dd 22be a457 453e
00000190: aaa7 5dbe f884 07be a0a6 34be cca0 cbbd
000001a0: 5c24 f9bd 6879 903d daf0 453e f04d 1f3c
000001b0: 50ac 513d b8f4 2c3e 2f9f 64be f0bb 733c
000001c0: 743c ce3d 083a 273d 5cae bebd 1a48 99bd
000001d0: a3a0 efbd ca91 623e ea55 cabd a81b 1dbd
000001e0: 004b 8b3b aee5 2bbe 00f0 15be c083 1abe
000001f0: 1065 393d 64e3 0abe be66 34be b553 02be
00000200: 20ef 9dbd 80bf 78bd 67ff 0ebe 9ce1 823d
00000210: 203a e6bc 967a 25be 5c61 d53d 7044 533d
00000220: 6031 123d f484 613e b0e1 1cbd 686b 103e
00000230: bddd e7bd d5f1 dfbd 787b 5e3d b407 efbd
00000240: bc7f c53d 06cb 57be 04e3 a7bd 4e55 643e
00000250: f081 39bc 90ce f83d 7c73 4e3e d0de 82bd
00000260: 787e 55bd 7c74 03bd 2b22 e4bd a0d1 dcbb
00000270: e43b da3d 54a0 453e 0467 1e3e b67f 613e
00000280: df46 e7bd 72d8 1dbe 0ac5 61be 5ed2 063e
00000290: 6008 cb3d 5036 5bbd 684f 3d3e efcd 24be
000002a0: 182f 14bd e0a8 bfbb b027 b83d 02f5 3e3e
000002b0: 5230 02be d865 643e ee17 5a3e f0aa 733d
000002c0: 8eb2 16be e4fd 963d 38dc 3e3d ae0b a6bd
000002d0: 206f 5c3e ceeb 37be 32ac a2bd 98c6 abbd
000002e0: a835 7ebd ecb4 293e e050 36bc 30e1 fe3c
000002f0: 4136 4cbe eadf 1abe 2ad4 0f3e 6ef8 8bbd
00000300: d4d1 a33d ba79 30be c604 02be b85a dc3d
00000310: d83e 213e f0b5 633c f157 4fbe 6e0e 10be
00000320: 169e a6bd d425 d53d 0735 3abe ce0d 13be
00000330: 5c8d 63be 8685 21be 2abf 253e 5ad9 aabd
00000340: 6407 58bd e0c5 e13b e42d 35bd e0ea 9cbd
00000350: 8063 94bb 1797 e5bd ba3f 113e b067 13bc
00000360: 6cd8 cc3d 90d0 dc3c 2286 2c3e 78c3 de3d
00000370: c739 e6bd 7042 57bd e05b 533d 4837 a5bd
00000380: 40b7 1ebe 92f4 3f3e 64c8 193e 2dc9 e4bd
00000390: 306f 533d c207 263e 9bbd 0abe 78e8 16bd
000003a0: 4cd3 3cbe 8583 51be 7afb 353e 7847 a03d
000003b0: 14d1 14be b8f0 87bc 3102 d5bd 20f0 26bd
000003c0: 1006 46bd 340f 913d f87a 1e3d 6b3f 1bbe
000003d0: 606d e53d e8f9 863c 4e2e efbd ab03 05be
000003e0: 40b1 a1bb 0064 9f3d d476 53be 5cfc 54bd
000003f0: 2774 25be 4d1b 56be 346a f53d 0a53 9dbd

fc.weight f4 [20, 80]
-0.12628695 -0.07439858 0.0579784 -0.19399582 -0.03420805 0.042503 -0.029927805 -0.14077678
0.026801242 -0.23681203 0.14164947 -0.18930213 0.015004108 0.23761998 -0.0039182287 -0.05289649
0.3233427 0.24576871 0.034033157 0.029095331 0.08597589 0.16488586 -0.007455955 0.0013815905
0.2670323 0.11144344 0.18219058 0.017442603 0.15304051 0.23790792 0.114409246 0.06885995
-0.021026788 -0.2955506 -0.124564 -0.43074203 0.17312065 -0.1405951 0.2117372 -0.13126655
-0.012151844 -0.15826191 -0.09952021 -0.017838579 -0.054632872 0.073679745 -0.008069254 -0.14095524
0.0760166 -0.009600991 -0.06538633 -0.04726309 0.0062176553 -0.17103559 -0.11537629 0.023407556
-0.08074822 -0.017768167 -0.052428946 0.024785075 0.17633455 0.104482114 0.16278282 0.18181713
-0.45498213 0.36429825 0.21204704 -0.28341582 -0.26446548 -0.3640446 -0.2937596 0.3764593
0.18469132 -0.2690816 -0.37279028 -0.47638234 0.03310289 0.11054476 0.13963059 -0.30707276
-0.24059954 -0.361062 0.68848413 -0.40305293 -0.3164727 0.5016783 -0.37991378 -0.19258772
0.38042945 -0.6318336 0.11976464 -0.5148558 0.3678906 0.50471467 0.09133912 0.05937419
0.7616533 0.46642125 -0.18462628 -0.035179384 0.16771242 0.24390484 0.041181996 -0.010317798
0.22992554 0.22284405 0.16412966 0.13880125 -0.02955748 0.057770964 -0.08265717 -0.039582364
-0.1806728 -0.45387575 -0.2510115 -0.5004329 0.15963116 -0.10700437 0.19264413 -0.17298613
0.034650907 -0.11738326 -0.2387924 -0.1609572 -0.11150529 0.15706836 -0.04663783 -0.14795767
-0.081344105 0.15833129 -0.09143023 -0.089837916 -0.17617455 -0.22030357 -0.06216396 -0.14396884
-0.20473115 0.046624813 0.17312008 0.012338318 0.10219368 0.13721643 0.16881984 0.23925777
-0.4533686 0.30781904 0.23369026 -0.4307294 -0.36336076 -0.35975325 -0.37715483 0.28201416
0.16012278 -0.50434065 -0.55020833 -0.43211877 0.092427514 -0.028114567 0.23682633 -0.21771018
-0.10781622 -0.21013379 -0.26968986 -0.09230343 -0.1703388 -0.20426174 -0.164533 -0.03975034
-0.12738815 0.0005827159 -0.21192388 -0.20108676 -0.2677076 -0.2486353 -0.26841393 -0.10553501
-0.22047879 -0.14935464 -0.22521083 -0.18772174 -0.20666167 -0.25454453 -0.2399406 -0.12067873
-0.19314326 -0.23459835 -0.11475436 -0.30171937 -0.28352875 -0.21024856 -0.0707161 -0.10282053
-0.15727536 0.06697122 -0.021432005 0.018023351 -0.12803903 -0.10514459 -0.21480127 -0.118669055
-0.20160817 -0.23169668 -0.17716944 -0.23799284 -0.06737429 -0.09069556 -0.22880079 -0.24252503
-0.041356485 -0.18780276 -0.1111855 -0.23718978 -0.18246038 -0.101196975 -0.13443658 -0.06674049
-0.14777325 -0.19172834 -0.13444078 -0.045909014 -0.1815953 -0.19546631 -0.19719046 -0.13812411
0.08195656 -0.29473305 -0.2916149 0.06466288 -0.0990435 -0.07196882 0.027725257 -0.39233157
-0.32222354 -0.09159724 0.061696045 -0.04258437 -0.10661835 -0.19342506 -0.30161086 -0.13303538
-0.4348101 -0.24904542 0.7405104 -0.49129385 -0.26201952 0.67596805 -0.5807002 -0.24592072
0.5708891 -0.7273219 0.30571604 -0.5628325 0.51808125 0.7064638 0.07783268 0.18163522
00000000: 5e51 01be 485e 98bd c27a 6d3d d7a6 46be
00000010: be1d 0cbd a017 2e3d 282b f5bc ca27 10be
00000020: 478e db3c da7e 72be 8f0c 113e 6bd8 41be
00000030: cad3 753c a752 733e 7c64 80bb fda9 58bd
00000040: 2d8d a53e cbaa 7b3e 5a66 0b3d 5559 ee3c
00000050: 2114 b03d d7d7 283e 1551 f4bb 7c16 b53a
00000060: 75b8 883e 753c e43d 2b90 3a3e cae3 8e3c
00000070: a7b6 1c3e 229e 733e 654f ea3d 7206 8d3d
00000080: 5f40 acbc 6952 97be 691b ffbd 388a dcbe
00000090: 8a46 313e 29f8 0fbe a3d1 583e bd6a 06be
000000a0: 8718 47bc 690f 22be 40d1 cbbd 3622 92bc
000000b0: b8c6 5fbd 68e5 963d e834 04bc 9256 10be
000000c0: 97ae 9b3d 7a4d 1dbc 45e9 85bd f196 41bd
000000d0: 79bd cb3b f423 2fbe 684a ecbd 34c1 bf3c
000000e0: 535f a5bd 8c8e 91bc bcbf 56bd 120a cb3c
000000f0: 0b91 343e b8fa d53d 8ab0 263e 452e 3a3e
00000100: 6bf3 e8be 4d85 ba3e dc22 593e e11b 91be
00000110: 0568 87be 0e64 babe a967 96be 46bf c03e
00000120: b91f 3d3e 10c5 89be 5ede bebe 63e8 f3be
00000130: e596 073d 4b65 e23d 52fb 0e3e a438 9dbe
00000140: ba5f 76be 1edd b8be 7f40 303f f45c cebe
00000150: b608 a2be fd6d 003f 0f84 c2be b735 45be
00000160: a6c7 c23e d9bf 21bf 2a47 f53d 97cd 03bf
00000170: 285c bc3e fb34 013f 0110 bb3d 5a32 733d
00000180: b6fb 423f c4ce ee3e ac0e 3dbe 4218 10bd
00000190: cebc 2b3e 31c2 793e 74ae 283d fb0b 29bc
000001a0: 9a71 6b3e 3b31 643e 9b11 283e ea21 0e3e
000001b0: 8722 f2bc 3fa1 6c3d 2a48 a9bd 1e21 22bd
000001c0: 4a02 39be 6762 e8be 9484 80be 5f1c 00bf
000001d0: 5a76 233e 1b25 dbbd 8144 453e 4723 31be
000001e0: 1cee 0d3d a266 f0bd ff85 74be f7d1 24be
000001f0: e35c e4bd 87d6 203e 4f07 3fbd 3782 17be
00000200: bd97 a6bd 9921 223e c63f bbbd f1fc b7bd
00000210: 1a67 34be 4297 61be a39f 7ebd 916c 13be
00000220: 0ba5 51be a9f9 3e3d 6446 313e a826 4a3c
00000230: ec4a d13d 7782 0c3e 1cdf 2c3e fdff 743e
00000240: ee1f e8be 759a 9d3e 804c 6f3e 9088 dcbe
00000250: 6c0a babe 9431 b8be 701a c1be 2964 903e
00000260: 3af7 233e 781c 01bf 74da 0cbf ac3e ddbe
00000270: a34a bd3d 8550 e6bc 9a82 723e 6bef 5ebe
00000280: c0ce dcbd 502d 57be ca14 8abe 9509 bdbd
00000290: 4b6d 2ebe fd29 51be 577b 28be 41d1 22bd
000002a0: 0a72 02be 67c1 183a 9302 59be b0e9 4dbe
000002b0: f810 89be 419a 7ebe 8d6d 89be bd22 d8bd
000002c0: 31c5 61be 6cf0 18be ab9d 66be 213a 40be
000002d0: 1e9f 53be a953 82be fdb2 75be 6926 f7bd
000002e0: 59c7 45be 8d3a 70be 5504 ebbd f67a 9abe
000002f0: ae2a 91be 664b 57be 9ad3 90bd 9293 d2bd
00000300: cb0c 21be 3528 893d 2c92 afbc b5a5 933c
00000310: aa1c 03be 0c56 d7bd ddf4 5bbe c308 f3bd
00000320: 5f72 4ebe e541 6dbe e86b 35be 65b4 73be
00000330: 88fb 89bd 98be b9bd c14a 6abe 7b58 78be
00000340: 6b65 29bd 5e4f 40be 39b5 e3bd e1e1 72be
00000350: e5d6 3abe 5c40 cfbd bea9 09be 3daf 88bd
00000360: df51 17be 6f54 44be d8aa 09be 170b 3cbd
00000370: 1ef4 39be 5228 48be 4cec 49be 6870 0dbe
00000380: d7d8 a73d 40e7 96be 8c4e 95be f96d 843d
00000390: 52d7 cabd 6464 93bd 1420 e33c afdf c8be
000003a0: 7cfa a4be 5597 bbbd feb4 7c3d f36c 2ebd
000003b0: b95a dabd 3811 46be bd6c 9abe 6d3a 08be
000003c0: 6e9f debe c305 7fbe 1792 3d3f de8a fbbe
000003d0: 6c27 86be 3e0c 2d3f c5a8 14bf a4d2 7bbe
000003e0: ca25 123f c531 3abf d086 9c3e ca15 10bf
000003f0: f9a0 043f d0da 343f bd66 9f3d 95fe 393e

fc.bias f4 [20]
0.08474269 -0.07039438 -0.23287274 -0.13594005 0.010172244 0.039369766 0.04287592 -0.06844954
0.0053701396 0.07147798 -0.072770365 -0.06871759 -0.090914264 0.006289944 0.02289433 0.09079658
-0.1732729 0.029899169 0.021891309 -0.01303092
00000000: 938d ad3d ee2a 90bd 3176 6ebe de33 0bbe
00000010: 7ca9 263c 3142 213d a99e 2f3d 462f 8cbd
00000020: fff7 af3b 0c63 923d a108 95bd cfbb 8cbd
00000030: 4231 babd e01b ce3b e48c bb3c 8ff3 b93d
00000040: 736e 31be 1aef f43c 6755 b33c a47f 55bc

fc_out.weight f4 [1, 20]
-0.22936444 -0.96704906 0.031197738 -0.91171086 0.22512238 0.17301121 -0.67311585 -0.6558906
-0.57399094 -0.7916003 -0.83225954 0.084410235 0.15565716 -0.6618313 0.10735731 -0.43437445
-1.9402425 0.22346164 0.13514893 -0.5532436
00000000: 83de 6abe 8790 77bf 6692 ff3c e265 69bf
00000010: 7b86 663e da29 313e 5251 2cbf 72e8 27bf
00000020: 12f1 12bf 51a6 4abf f60e 55bf 46df ac3d
00000030: 9764 1f3e c76d 29bf 26de db3d 5466 debe
00000040: de59 f8bf 21d3 643e 7b64 0a3e 5fa1 0dbf
